{"format": "torch", "nodes": [{"name": "mm_module.inside", "id": 140416994499472, "class_name": "Vis_Module(\n  (feature_extractor): ResNet(\n    (conv1): Conv2d(3, 64, kernel_size=(7, 7), stride=(2, 2), padding=(3, 3), bias=False)\n    (bn1): BatchNorm2d(64, eps=1e-05, momentum=0.1, affine=True, track_running_stats=True)\n    (relu): ReLU(inplace=True)\n    (maxpool): MaxPool2d(kernel_size=3, stride=2, padding=1, dilation=1, ceil_mode=False)\n    (layer1): Sequential(\n      (0): Bottleneck(\n        (conv1): Conv2d(64, 64, kernel_size=(1, 1), stride=(1, 1), bias=False)\n        (bn1): BatchNorm2d(64, eps=1e-05, momentum=0.1, affine=True, track_running_stats=True)\n        (conv2): Conv2d(64, 64, kernel_size=(3, 3), stride=(1, 1), padding=(1, 1), bias=False)\n        (bn2): BatchNorm2d(64, eps=1e-05, momentum=0.1, affine=True, track_running_stats=True)\n        (conv3): Conv2d(64, 256, kernel_size=(1, 1), stride=(1, 1), bias=False)\n        (bn3): BatchNorm2d(256, eps=1e-05, momentum=0.1, affine=True, track_running_stats=True)\n        (relu): ReLU(inplace=True)\n        (downsample): Sequential(\n          (0): Conv2d(64, 256, kernel_size=(1, 1), stride=(1, 1), bias=False)\n          (1): BatchNorm2d(256, eps=1e-05, momentum=0.1, affine=True, track_running_stats=True)\n        )\n      )\n      (1): Bottleneck(\n        (conv1): Conv2d(256, 64, kernel_size=(1, 1), stride=(1, 1), bias=False)\n        (bn1): BatchNorm2d(64, eps=1e-05, momentum=0.1, affine=True, track_running_stats=True)\n        (conv2): Conv2d(64, 64, kernel_size=(3, 3), stride=(1, 1), padding=(1, 1), bias=False)\n        (bn2): BatchNorm2d(64, eps=1e-05, momentum=0.1, affine=True, track_running_stats=True)\n        (conv3): Conv2d(64, 256, kernel_size=(1, 1), stride=(1, 1), bias=False)\n        (bn3): BatchNorm2d(256, eps=1e-05, momentum=0.1, affine=True, track_running_stats=True)\n        (relu): ReLU(inplace=True)\n      )\n      (2): Bottleneck(\n        (conv1): Conv2d(256, 64, kernel_size=(1, 1), stride=(1, 1), bias=False)\n        (bn1): BatchNorm2d(64, eps=1e-05, momentum=0.1, affine=True, track_running_stats=True)\n        (conv2): Conv2d(64, 64, kernel_size=(3, 3), stride=(1, 1), padding=(1, 1), bias=False)\n        (bn2): BatchNorm2d(64, eps=1e-05, momentum=0.1, affine=True, track_running_stats=True)\n        (conv3): Conv2d(64, 256, kernel_size=(1, 1), stride=(1, 1), bias=False)\n        (bn3): BatchNorm2d(256, eps=1e-05, momentum=0.1, affine=True, track_running_stats=True)\n        (relu): ReLU(inplace=True)\n      )\n    )\n    (layer2): Sequential(\n      (0): Bottleneck(\n        (conv1): Conv2d(256, 128, kernel_size=(1, 1), stride=(1, 1), bias=False)\n        (bn1): BatchNorm2d(128, eps=1e-05, momentum=0.1, affine=True, track_running_stats=True)\n        (conv2): Conv2d(128, 128, kernel_size=(3, 3), stride=(2, 2), padding=(1, 1), bias=False)\n        (bn2): BatchNorm2d(128, eps=1e-05, momentum=0.1, affine=True, track_running_stats=True)\n        (conv3): Conv2d(128, 512, kernel_size=(1, 1), stride=(1, 1), bias=False)\n        (bn3): BatchNorm2d(512, eps=1e-05, momentum=0.1, affine=True, track_running_stats=True)\n        (relu): ReLU(inplace=True)\n        (downsample): Sequential(\n          (0): Conv2d(256, 512, kernel_size=(1, 1), stride=(2, 2), bias=False)\n          (1): BatchNorm2d(512, eps=1e-05, momentum=0.1, affine=True, track_running_stats=True)\n        )\n      )\n      (1): Bottleneck(\n        (conv1): Conv2d(512, 128, kernel_size=(1, 1), stride=(1, 1), bias=False)\n        (bn1): BatchNorm2d(128, eps=1e-05, momentum=0.1, affine=True, track_running_stats=True)\n        (conv2): Conv2d(128, 128, kernel_size=(3, 3), stride=(1, 1), padding=(1, 1), bias=False)\n        (bn2): BatchNorm2d(128, eps=1e-05, momentum=0.1, affine=True, track_running_stats=True)\n        (conv3): Conv2d(128, 512, kernel_size=(1, 1), stride=(1, 1), bias=False)\n        (bn3): BatchNorm2d(512, eps=1e-05, momentum=0.1, affine=True, track_running_stats=True)\n        (relu): ReLU(inplace=True)\n      )\n      (2): Bottleneck(\n        (conv1): Conv2d(512, 128, kernel_size=(1, 1), stride=(1, 1), bias=False)\n        (bn1): BatchNorm2d(128, eps=1e-05, momentum=0.1, affine=True, track_running_stats=True)\n        (conv2): Conv2d(128, 128, kernel_size=(3, 3), stride=(1, 1), padding=(1, 1), bias=False)\n        (bn2): BatchNorm2d(128, eps=1e-05, momentum=0.1, affine=True, track_running_stats=True)\n        (conv3): Conv2d(128, 512, kernel_size=(1, 1), stride=(1, 1), bias=False)\n        (bn3): BatchNorm2d(512, eps=1e-05, momentum=0.1, affine=True, track_running_stats=True)\n        (relu): ReLU(inplace=True)\n      )\n      (3): Bottleneck(\n        (conv1): Conv2d(512, 128, kernel_size=(1, 1), stride=(1, 1), bias=False)\n        (bn1): BatchNorm2d(128, eps=1e-05, momentum=0.1, affine=True, track_running_stats=True)\n        (conv2): Conv2d(128, 128, kernel_size=(3, 3), stride=(1, 1), padding=(1, 1), bias=False)\n        (bn2): BatchNorm2d(128, eps=1e-05, momentum=0.1, affine=True, track_running_stats=True)\n        (conv3): Conv2d(128, 512, kernel_size=(1, 1), stride=(1, 1), bias=False)\n        (bn3): BatchNorm2d(512, eps=1e-05, momentum=0.1, affine=True, track_running_stats=True)\n        (relu): ReLU(inplace=True)\n      )\n    )\n    (layer3): Sequential(\n      (0): Bottleneck(\n        (conv1): Conv2d(512, 256, kernel_size=(1, 1), stride=(1, 1), bias=False)\n        (bn1): BatchNorm2d(256, eps=1e-05, momentum=0.1, affine=True, track_running_stats=True)\n        (conv2): Conv2d(256, 256, kernel_size=(3, 3), stride=(2, 2), padding=(1, 1), bias=False)\n        (bn2): BatchNorm2d(256, eps=1e-05, momentum=0.1, affine=True, track_running_stats=True)\n        (conv3): Conv2d(256, 1024, kernel_size=(1, 1), stride=(1, 1), bias=False)\n        (bn3): BatchNorm2d(1024, eps=1e-05, momentum=0.1, affine=True, track_running_stats=True)\n        (relu): ReLU(inplace=True)\n        (downsample): Sequential(\n          (0): Conv2d(512, 1024, kernel_size=(1, 1), stride=(2, 2), bias=False)\n          (1): BatchNorm2d(1024, eps=1e-05, momentum=0.1, affine=True, track_running_stats=True)\n        )\n      )\n      (1): Bottleneck(\n        (conv1): Conv2d(1024, 256, kernel_size=(1, 1), stride=(1, 1), bias=False)\n        (bn1): BatchNorm2d(256, eps=1e-05, momentum=0.1, affine=True, track_running_stats=True)\n        (conv2): Conv2d(256, 256, kernel_size=(3, 3), stride=(1, 1), padding=(1, 1), bias=False)\n        (bn2): BatchNorm2d(256, eps=1e-05, momentum=0.1, affine=True, track_running_stats=True)\n        (conv3): Conv2d(256, 1024, kernel_size=(1, 1), stride=(1, 1), bias=False)\n        (bn3): BatchNorm2d(1024, eps=1e-05, momentum=0.1, affine=True, track_running_stats=True)\n        (relu): ReLU(inplace=True)\n      )\n      (2): Bottleneck(\n        (conv1): Conv2d(1024, 256, kernel_size=(1, 1), stride=(1, 1), bias=False)\n        (bn1): BatchNorm2d(256, eps=1e-05, momentum=0.1, affine=True, track_running_stats=True)\n        (conv2): Conv2d(256, 256, kernel_size=(3, 3), stride=(1, 1), padding=(1, 1), bias=False)\n        (bn2): BatchNorm2d(256, eps=1e-05, momentum=0.1, affine=True, track_running_stats=True)\n        (conv3): Conv2d(256, 1024, kernel_size=(1, 1), stride=(1, 1), bias=False)\n        (bn3): BatchNorm2d(1024, eps=1e-05, momentum=0.1, affine=True, track_running_stats=True)\n        (relu): ReLU(inplace=True)\n      )\n      (3): Bottleneck(\n        (conv1): Conv2d(1024, 256, kernel_size=(1, 1), stride=(1, 1), bias=False)\n        (bn1): BatchNorm2d(256, eps=1e-05, momentum=0.1, affine=True, track_running_stats=True)\n        (conv2): Conv2d(256, 256, kernel_size=(3, 3), stride=(1, 1), padding=(1, 1), bias=False)\n        (bn2): BatchNorm2d(256, eps=1e-05, momentum=0.1, affine=True, track_running_stats=True)\n        (conv3): Conv2d(256, 1024, kernel_size=(1, 1), stride=(1, 1), bias=False)\n        (bn3): BatchNorm2d(1024, eps=1e-05, momentum=0.1, affine=True, track_running_stats=True)\n        (relu): ReLU(inplace=True)\n      )\n      (4): Bottleneck(\n        (conv1): Conv2d(1024, 256, kernel_size=(1, 1), stride=(1, 1), bias=False)\n        (bn1): BatchNorm2d(256, eps=1e-05, momentum=0.1, affine=True, track_running_stats=True)\n        (conv2): Conv2d(256, 256, kernel_size=(3, 3), stride=(1, 1), padding=(1, 1), bias=False)\n        (bn2): BatchNorm2d(256, eps=1e-05, momentum=0.1, affine=True, track_running_stats=True)\n        (conv3): Conv2d(256, 1024, kernel_size=(1, 1), stride=(1, 1), bias=False)\n        (bn3): BatchNorm2d(1024, eps=1e-05, momentum=0.1, affine=True, track_running_stats=True)\n        (relu): ReLU(inplace=True)\n      )\n      (5): Bottleneck(\n        (conv1): Conv2d(1024, 256, kernel_size=(1, 1), stride=(1, 1), bias=False)\n        (bn1): BatchNorm2d(256, eps=1e-05, momentum=0.1, affine=True, track_running_stats=True)\n        (conv2): Conv2d(256, 256, kernel_size=(3, 3), stride=(1, 1), padding=(1, 1), bias=False)\n        (bn2): BatchNorm2d(256, eps=1e-05, momentum=0.1, affine=True, track_running_stats=True)\n        (conv3): Conv2d(256, 1024, kernel_size=(1, 1), stride=(1, 1), bias=False)\n        (bn3): BatchNorm2d(1024, eps=1e-05, momentum=0.1, affine=True, track_running_stats=True)\n        (relu): ReLU(inplace=True)\n      )\n    )\n    (layer4): Sequential(\n      (0): Bottleneck(\n        (conv1): Conv2d(1024, 512, kernel_size=(1, 1), stride=(1, 1), bias=False)\n        (bn1): BatchNorm2d(512, eps=1e-05, momentum=0.1, affine=True, track_running_stats=True)\n        (conv2): Conv2d(512, 512, kernel_size=(3, 3), stride=(2, 2), padding=(1, 1), bias=False)\n        (bn2): BatchNorm2d(512, eps=1e-05, momentum=0.1, affine=True, track_running_stats=True)\n        (conv3): Conv2d(512, 2048, kernel_size=(1, 1), stride=(1, 1), bias=False)\n        (bn3): BatchNorm2d(2048, eps=1e-05, momentum=0.1, affine=True, track_running_stats=True)\n        (relu): ReLU(inplace=True)\n        (downsample): Sequential(\n          (0): Conv2d(1024, 2048, kernel_size=(1, 1), stride=(2, 2), bias=False)\n          (1): BatchNorm2d(2048, eps=1e-05, momentum=0.1, affine=True, track_running_stats=True)\n        )\n      )\n      (1): Bottleneck(\n        (conv1): Conv2d(2048, 512, kernel_size=(1, 1), stride=(1, 1), bias=False)\n        (bn1): BatchNorm2d(512, eps=1e-05, momentum=0.1, affine=True, track_running_stats=True)\n        (conv2): Conv2d(512, 512, kernel_size=(3, 3), stride=(1, 1), padding=(1, 1), bias=False)\n        (bn2): BatchNorm2d(512, eps=1e-05, momentum=0.1, affine=True, track_running_stats=True)\n        (conv3): Conv2d(512, 2048, kernel_size=(1, 1), stride=(1, 1), bias=False)\n        (bn3): BatchNorm2d(2048, eps=1e-05, momentum=0.1, affine=True, track_running_stats=True)\n        (relu): ReLU(inplace=True)\n      )\n      (2): Bottleneck(\n        (conv1): Conv2d(2048, 512, kernel_size=(1, 1), stride=(1, 1), bias=False)\n        (bn1): BatchNorm2d(512, eps=1e-05, momentum=0.1, affine=True, track_running_stats=True)\n        (conv2): Conv2d(512, 512, kernel_size=(3, 3), stride=(1, 1), padding=(1, 1), bias=False)\n        (bn2): BatchNorm2d(512, eps=1e-05, momentum=0.1, affine=True, track_running_stats=True)\n        (conv3): Conv2d(512, 2048, kernel_size=(1, 1), stride=(1, 1), bias=False)\n        (bn3): BatchNorm2d(2048, eps=1e-05, momentum=0.1, affine=True, track_running_stats=True)\n        (relu): ReLU(inplace=True)\n      )\n    )\n    (avgpool): AdaptiveAvgPool2d(output_size=(1, 1))\n    (fc): Linear(in_features=2048, out_features=32, bias=True)\n  )\n  (fe_pool): AdaptiveAvgPool2d(output_size=(1, 1))\n  (fe_fc): Linear(in_features=2048, out_features=32, bias=True)\n  (fe_relu): ReLU()\n  (fe_dropout): Dropout(p=0.4, inplace=False)\n  (lstm): LSTM(32, 32, num_layers=2, batch_first=True)\n  (module_fe_relu): ReLU()\n  (module_fe_dropout): Dropout(p=0, inplace=False)\n)", "parameters": [["feature_extractor.conv1.weight", [64, 3, 7, 7]], ["feature_extractor.bn1.weight", [64]], ["feature_extractor.bn1.bias", [64]], [
…
